model/keypoint_classifier/keypoint_classifier.tflite (tflite, 6416 bytes, 6 tensors)

dense_2/bias f4 [4]
00000000: 723a 8b3d 0069 333d 8398 79be 87d0 3e3e
0.06798257 0.043801308 -0.24374585 0.18634234

dense_1/bias f4 [10]
00000000: 8c51 a23d c86b 3bbd e709 80bc c856 d43e
00000010: bf97 183e a0dd c53c ccac a93d e8a1 7b3e
00000020: 71a1 da3d 8990 bbbd
0.0792571 -0.045757085 -0.015629722 0.4147246 0.14901637 0.02415353 0.082849115 0.24573481
0.10675324 -0.09158427

dense/bias f4 [20]
00000000: 7097 163d b0eb 8e3e ec76 eebd 4b82 97bd
00000010: 9d72 b03b c3f3 053e 7c9d 0a3e 5161 90be
00000020: 572c 6fbd d065 bc3d cb2c 1fbe 99d2 293e
00000030: d98b f53d 9d2e 46be 941b 9a3d 2b0e 603d
00000040: bb0b ce3d 5a7d 1fbe 5b74 983d 32bd 09bd
0.036765516 0.2791419 -0.11643776 -0.07397898 0.0053847567 0.13081269 0.13536638 -0.28199247
-0.058391895 0.09199107 -0.15544431 0.16584243 0.119895644 -0.19353719 0.07524791 0.05470101
0.10060831 -0.15575162 0.07444068 -0.033627696

sequential/dense/MatMul f4 [20, 42]
00000000: 8061 1f3d c7a8 7fbe c74b 75be 4564 7a3e
00000010: bd19 05be 4589 e3bd be11 e9bd 91ba a03d
00000020: f9d9 233e db5b 9b3e 5c16 113e 111b 033e
00000030: d2bc 8c3e 2ee2 2c3e 1a69 b43e 3f34 f2bd
00000040: d269 953e d81b 8b3e 9dd4 ab3e a337 8abd
00000050: ea24 873e 1fb7 7d3d c3d8 c93e 7ba7 b83c
00000060: fcdc c63e 5ffd 7d3c 2998 183d 82d1 7c3e
00000070: 979d ea3e 35c5 b7bd a4a1 7e3e f439 193e
00000080: 7b66 0e3f c2b7 bcbc bede 9a3e cd96 a63c
00000090: db0f a23e 6f97 bbbd cb10 153f 2d6c 773e
000000a0: 6f5c a63e c42d 593e d44a 5e3e 6e39 0e3e
000000b0: 6eb0 9d3c 71ba f3be 7361 d5bc 71d4 c0bd
000000c0: 3501 dc3d c0b0 eebe 1863 9d3e ae60 cebe
000000d0: f32b 0ebe 252e 9dbd 3eb3 6bbd a443 34be
000000e0: e49c 97bd 4d2a 483c b9a7 9e3d ef6c 103d
000000f0: a451 8ebd b805 f03d 9655 99bd 4f95 49bc
00000100: 386f 4d3e 71ea 553d c23c 503e 0844 4d3e
00000110: 15b6 25bd 492e 653e c0f0 50be c2c8 e13c
00000120: 6915 b4bd 91c2 8d3e 8892 b1bd 7f55 f03d
00000130: f334 833e da62 0a3f 10fa 89bd 591f bd3e
00000140: 7a49 563d 66fd 403e 2107 7bbd 713a f43e
00000150: 1a85 873e 54cc 55be c63b ff3c 3e42 183c
00000160: db73 07be 4a72 adbe 65d1 f9bd 1e7c f0be
00000170: b240 1c3e a2c7 2fbe e080 763e 7e65 e0be
00000180: 50b2 11be 1bb3 01be 818e 78be afa6 7d3e
00000190: e052 91bd 02e6 2c3e 6ead 0b3f 8e19 f2be
000001a0: 9aa8 f2bc a259 a83d ad84 14be 9612 a23e
000001b0: 3a3f de3d a542 393e 62a2 0c3e de54 a7be
000001c0: 56bb 1bbe 7260 bfbd e5b9 8bbd 7f11 453e
000001d0: dbfe 7abc fa19 d33d f467 903e 7d87 afbe
000001e0: 22ff 6fbe e802 993d 37a7 9cbe d68f f63d
000001f0: ec0d 153b 453d 293e f0f1 f23c 40b6 6f3e
00000200: c052 8d3e a948 b73d 7aaf 37be 3532 af3e
00000210: b23a 82be 89d1 9f3e 022f 30be 0c85 d53e
00000220: 2418 31be ad1e 803e 973d 443d 43dd 883e
00000230: 667e 563e 6d73 d5bd 3069 263d f131 80bd
00000240: 5a82 17be 5c40 ee3c 740e 4a3e 2f41 e3bd
00000250: 4510 31be 5ec0 cebe 1bd2 cc3d 38a0 d5be
00000260: 5645 7e3d 920c 573d 4fe0 bcbd 8196 bf3d
00000270: a277 b13d c9eb 58be ea99 36be fb09 89be
00000280: cec4 60be d496 ac3d 5e45 aa3c a3e3 86be
00000290: 909f 233c 89a2 c3be bcac 1dbb 3061 f9be
000002a0: 4051 ecbc 80a0 79bd 33bb d93c 4c9b 923d
000002b0: aec0 333d f636 883e b2c8 f1bd 552e f83e
000002c0: ea9d ff3c a6d9 073e b5c7 513e 8aa7 a63e
000002d0: 7dea 27bc f6a5 4b3e 7992 89bd af92 fcbd
000002e0: 3110 343a b6f3 90be 3d27 a3bc 50d6 ca3e
000002f0: 8675 cf3b 5fad e6bc bd15 45bd b96e cdbd
00000300: 9e61 ddbc 6588 f5be c3b7 46be 27a0 9f3e
00000310: 36ca 283e dc78 f4bd 7b53 273d a083 d0be
00000320: 4770 51bd 5919 e7be 7514 50be 5282 6d3e
00000330: 0afa 8e3e 563c 7f3d e4de f8bc e96d 38be
00000340: 7a2d 3abe b3db 10bf ae9e 943e 6e21 1bbe
00000350: 6ba0 9abd 3faa edbd 1aef b3be 2dcf e6bd
00000360: 8aa6 f13c 532a 3c3d 2ed9 1dbc 4f68 543c
00000370: e312 a83d a123 8d3e c64e 353c 0ada 223e
00000380: 43ee c0be 3139 543e 2e18 06bf af7b 3a3d
00000390: a2d7 d0be 895a 3d3e c11f abbe c59d 44bd
000003a0: a770 53be 2d0d f0bd 951e d4be f6b8 c5bd
000003b0: bb51 a8bd 5403 4f3e a46c 86be bfb5 0fbe
000003c0: 3337 00bd b018 383e 8164 fbbe e93f 2abe
000003d0: 6ff9 afbe a1e8 873e 31e0 c6be fd55 4d3d
000003e0: ecb0 4f3d 9639 e5bc dae5 99be 1514 e8bb
000003f0: 2b80 83be b89e 893e fa59 7dbd 8931 a4be
0.038911343 -0.24966727 -0.23954688 0.24452312 -0.129981 -0.111101665 -0.11380337 0.07848085
0.16001119 0.30343518 0.14168686 0.12803294 0.27487808 0.16883156 0.35236436 -0.118263714
0.29182297 0.2716968 0.3356065 -0.06748893 0.2639535 0.061942216 0.3942319 0.022540798
0.38840473 0.015502303 0.037254486 0.24689296 0.45823357 -0.08973161 0.24866349 0.14963514
0.5562512 -0.023036841 0.30248064 0.02033558 0.31652722 -0.09159743 0.5822875 0.2416236
0.32492396 0.21208864 0.21708232 0.13889095 0.019249167 -0.4760318 -0.026047444 -0.0941552
0.10742418 -0.46619225 0.30739665 -0.40308136 -0.13883953 -0.07674817 -0.057543986 -0.17603928
-0.074029714 0.012217117 0.07746834 0.035260137 -0.069491655 0.11719841 -0.07487027 -0.012303664
0.20061958 0.052225534 0.20335677 0.20045483 -0.04045685 0.22380938 -0.20404339 0.02756155
-0.08793146 0.27687505 -0.08670527 0.11735057 0.25626335 0.54057086 -0.06737149 0.3693798
0.052316166 0.18846664 -0.061286096 0.47700837 0.26468736 -0.20878726 0.031156432 0.009293137
-0.13227789 -0.33876258 -0.12198142 -0.46969694 0.15259054 -0.17165998 0.240726 -0.43827432
-0.14228177 -0.1266598 -0.24273111 0.24770616 -0.07095885 0.16884616 0.5456151 -0.47285122
-0.029621411 0.08220221 -0.14503737 0.31654805 0.10851903 0.18091829 0.13733819 -0.32681936
-0.15208182 -0.09344567 -0.06822566 0.19244955 -0.015319551 0.10307689 0.2820431 -0.34283057
-0.23437169 0.074712574 -0.30596325 0.12039153 0.0022743894 0.16527279 0.02965638 0.23409367
0.27602196 0.08949406 -0.17938033 0.34217992 -0.25435406 0.3121455 -0.17205432 0.4170307
-0.17294365 0.25023404 0.0479103 0.2673131 0.20946655 -0.10422406 0.04062766 -0.062595256
-0.14795819 0.029083423 0.19732076 -0.11096417 -0.17291363 -0.4038114 0.10001012 -0.417238
0.062077843 0.052502222 -0.09222471 0.09354878 0.08665396 -0.21183695 -0.17832151 -0.26765427
-0.21950075 0.08427206 0.02078503 -0.26345548 0.009986773 -0.38209942 -0.0024059257 -0.4870696
-0.028847337 -0.06094408 0.026578521 0.07158527 0.043884926 0.26604432 -0.11805858 0.4847285
0.031203229 0.1326662 0.20486338 0.32549697 -0.010248777 0.19887528 -0.067173906 -0.12332665
0.0006868868 -0.28310937 -0.019916171 0.39616632 0.0063311486 -0.028158842 -0.048116434 -0.10030884
-0.027024087 -0.47955623 -0.19406037 0.31176874 0.16483387 -0.119371146 0.040851098 -0.40725422
-0.051132467 -0.45136526 -0.20320304 0.23194245 0.2792514 0.0623134 -0.03037972 -0.18010677
-0.1818141 -0.56585234 0.29027313 -0.15149471 -0.075501285 -0.116047375 -0.35143358 -0.112699844
0.029498357 0.0459388 -0.009634299 0.012964322 0.08206727 0.27566245 0.011066144 0.15903488
-0.3768178 0.20724942 -0.52380645 0.04552811 -0.40789515 0.18491568 -0.33422664 -0.048002023
-0.20648442 -0.11721263 -0.41429582 -0.09654419 -0.08218714 0.20216113 -0.2625476 -0.14034174
-0.031302642 0.17978168 -0.49100116 -0.16625942 -0.3436999 0.2654467 -0.3884292 0.050130833
0.050705835 -0.02798156 -0.30058175 -0.007082472 -0.25683722 0.26878905 -0.061853386 -0.32069042

sequential/dense_1/MatMul f4 [10, 20]
00000000: 583c 87bd 0f33 2a3f fffc 7ebd 3e76 053e
00000010: de93 aebe 2185 c53d e90a aa3e 96a5 03bf
00000020: 2a60 bebe af8b 853e 9679 963e 2907 51be
00000030: 785c 44be 689a ae3b ee83 6ebe 4155 463e
00000040: 7ab7 203d 0eda 3f3e 6b4d 713e a8e0 dbba
00000050: ecfe 493e 3199 adbe 7e8f 3b3e 8600 cc3e
00000060: 73e8 743e 2208 e3bd 6cc3 98be 0988 483e
00000070: 2891 933e 676c b23e b2f0 073f 48da 45be
00000080: 3a0c b7bd 6eef bcbd 968c 8dbe a774 a43d
00000090: 7021 6ebd a243 bc3e 9a2a 223e 8e6f 403d
000000a0: 15a0 eb3e 2da0 173f ab6a 953d 82c2 0abe
000000b0: eced 233e 00b4 963e af4f a43e d927 043e
000000c0: 25d4 ae3e dbbd b63e 871f 713e 3bb8 353e
000000d0: cb67 afbb c849 09be 35e5 213f 665b de3e
000000e0: 6803 87bc 5177 4a3e 964c a03e f55d de3e
000000f0: 9cc7 19bf 5488 ec3e 7c8d 933e 801f a23d
00000100: 22d0 8f3d bb26 0ebf 75d4 7e3e 1c2c d83e
00000110: 9e21 a53e 6633 a9bd ee77 07bf be37 e73e
00000120: 5858 06bf 97ad 373e ad9c 203e 278b 70be
00000130: 0919 d53d cb2b 8cbb d37f 0ebf f073 f9bd
00000140: 0c4b 063f a9e6 a43e 7024 c43d e61e 0dbf
00000150: bf18 0fbf 2169 4d3e b128 c93e c073 09bf
00000160: 5ebf d33e f26d ba3e cf1f 17be fbf8 b03e
00000170: 780f 193f 88c0 98bd 4a7c 833e b7e4 b23e
00000180: 0cde 933e c2d8 c9bd db4d ca3e 1c3d c53e
00000190: da9b c33e e0ee e23d ef7b 84bd d9c9 62be
000001a0: 9a04 123f 7756 c13e 43c8 eb3e 6dc4 9d3d
000001b0: ee20 c83e 861f 2a3f 8c8f 293e cee9 bebe
000001c0: 3d39 b9be fef5 a13d 7768 00bf 3a8d 4abe
000001d0: 053f dfbe 875c cc3e 49e4 a1bc a21e dc3e
000001e0: 11a0 4e3e b225 04bf ab84 d83e 4d25 b33e
000001f0: d2a5 f5bd d0da 033e e65b cdbb d54e 363e
00000200: 5de3 7cbe d2b2 383e 2a88 ff3e 83b2 fcbd
00000210: 1343 c13d eae9 0c3f 4e5d a2be 8f8e 2a3e
00000220: 7e90 debe 38b6 113f eb79 213e 153a e43d
00000230: cbcf 073e 57bc 2bbc a72e 423f 64e5 16be
00000240: 7de3 c23d 6201 1abf ea21 f6be 7aac 4d3e
00000250: 410f 01be 0495 09be 1fe9 2bbe 5570 d13e
00000260: 5088 b8be 5d1a 6a3e d9fc e0be ea61 2cbf
00000270: 124f 0a3f 6735 aebd eb8c dcbe e454 7fbe
00000280: 10a5 85bd 33ed f1be 8b89 96be 38d1 213f
00000290: f336 373f a0bd 6a3d fc08 88be 5065 273f
000002a0: db2a 8b3e 1a98 1a3d 3cc0 a5be 876b 1ebe
000002b0: c836 25bd 4119 1e3f faa9 a2be 0d6c ab3e
000002c0: 25fa 33bd ca9c 4f3e 4d86 99be 0be8 293e
000002d0: b664 b1be 2c82 2cbe 08de 7ebe b5fc a3be
000002e0: 033a 01bf bb75 d9bd d206 0abc 3835 073e
000002f0: 6914 cfbd 9e4d c3be de30 ec3e 5328 3fbd
00000300: 6f9a 84bd 9bc3 613b 506f 573e 5fe3 5c3c
00000310: 7ddc a1be 2ca5 cb3d 06c0 a5be e056 c5be
-0.066033065 0.6648416 -0.062252995 0.13033387 -0.3409719 0.09644533 0.3321145 -0.5142454
-0.37182742 0.26083133 0.29389638 -0.20412888 -0.19175899 0.0053284653 -0.23292515 0.1936846
0.039237477 0.18735525 0.23564689 -0.0016775327 0.19726151 -0.33905938 0.18316457 0.3984415
0.23916797 -0.110855356 -0.29836595 0.19583143 0.28821683 0.3484833 0.53101647 -0.19321549
-0.08937879 -0.09225355 -0.2764632 0.08030062 -0.058137357 0.3677035 0.15836564 0.046981387
0.4602057 0.59228784 0.07295736 -0.13550761 0.16008729 0.29434204 0.32092044 0.12905826
0.34146228 0.35691723 0.23547183 0.1774606 -0.0053529493 -0.13407052 0.6324037 0.43429106
-0.016481116 0.19772078 0.3130843 0.4343106 -0.60070205 0.4619776 0.28818882 0.079161644
0.0702212 -0.5552785 0.24885733 0.42221153 0.3225221 -0.082617566 -0.52917373 0.45159715
-0.5247855 0.17937313 0.15684767 -0.23490582 0.10405166 -0.0042776815 -0.55663794 -0.121803164
0.5245826 0.3220723 0.095772624 -0.5512527 -0.55897135 0.20059635 0.39288858 -0.53692245
0.4135694 0.36412007 -0.14758228 0.34564957 0.5978923 -0.074585974 0.25680763 0.3494012
0.28880346 -0.098557964 0.39512524 0.38523185 0.38204843 0.11080718 -0.06468951 -0.22147311
0.5703827 0.3776128 0.46051225 0.07703481 0.39087623 0.6645435 0.16558665 -0.37287754
-0.36176482 0.079082474 -0.501594 -0.19780436 -0.43602768 0.39914343 -0.019762175 0.4299212
0.20178248 -0.5162002 0.42288718 0.34989396 -0.11994518 0.12876439 -0.0062670587 0.1780351
-0.24696107 0.18036965 0.49908572 -0.12338736 0.094366215 0.55044425 -0.3171181 0.16655944
-0.43469614 0.5691867 0.15769164 0.11143891 0.1326286 -0.010481915 0.75852436 -0.14735943
0.09516046 -0.6015836 -0.4807275 0.20085326 -0.12603475 -0.13435751 -0.16788147 0.40906015
-0.36041498 0.2286162 -0.43942907 -0.67336905 0.540269 -0.085062794 -0.43076262 -0.24934727
-0.06525624 -0.4725128 -0.29401812 0.6320987 0.7156822 0.057309747 -0.26569355 0.65388966
0.27181134 0.03774271 -0.32373226 -0.15470706 -0.040335447 0.61757284 -0.31770307 0.33480874
-0.04393973 0.20274654 -0.29985276 0.16592424 -0.3464715 -0.16846532 -0.24889386 -0.32028738
-0.50479144 -0.106181584 -0.008424478 0.13203895 -0.10111315 -0.38145155 0.46131033 -0.046669316
-0.06474768 0.0034448865 0.21038556 0.013481944 -0.31613532 0.099436134 -0.32373065 -0.38542843

sequential/dense_2/MatMul f4 [4, 10]
00000000: f004 9a3e 9919 923e 6c87 0cbf 953e 9fbe
00000010: 527e d0be 4da3 9e3e f44e 17bf f927 86be
00000020: a4f4 2e3f 0918 ce3e 70fa e43e ad79 d3be
00000030: 5440 143f e1d4 ffbe 8e2d 263f d11e 7d3e
00000040: a237 54bf 39e3 0e3e 3121 29bf 854c 08bf
00000050: ed6b eabe 39f7 063f 3877 f63e 0f8d 50bf
00000060: d2f4 01bf 508a 063f 1b0d de3e e968 3dbf
00000070: af9a 873e de83 f63e 7d28 48bf 6de4 24be
00000080: 601f 6cbe b1f5 ff3a e90d 4abf 0f8f 04bf
00000090: 2ba2 703e 769a 643f 4dcc 4cbe 1db9 e2be
0.30081892 0.28535154 -0.5489414 -0.31102434 -0.40721375 0.30983964 -0.5910485 -0.26202372
0.6834204 0.40252712 0.4472232 -0.4130377 0.57910657 -0.499671 0.6491326 0.24718787
-0.8289739 0.13953866 -0.6606627 -0.5324176 -0.45785466 0.5272098 0.48137832 -0.8146524
-0.5076419 0.525548 0.43369374 -0.73988205 0.26485202 0.48147482 -0.7818678 -0.16102763
-0.23058844 0.0019528178 -0.78927475 -0.5178079 0.23499362 0.8929819 -0.1999981 -0.44281855
